…
==========================================================================================================
Layer (type (var_name):depth-idx)        Input Shape               Output Shape              Param #                   Param %                   Kernel Shape              Mult-Adds                 Trainable
=======================================================================================================================================================================================================================
TCN (TCN)                                [1, 9, 2048]              [1, 1]                    --                             --                   --                        --                        True
+ Conv1d (b0_tcn): 1-1                   [1, 9, 2048]              [1, 4, 1024]              112                        20.00%                   [3]                       114,688                   True
+ ReLU (b0_relu): 1-2                    [1, 4, 1024]              [1, 4, 1024]              --                             --                   --                        --                        --
+ Conv1d (b1_tcn): 1-3                   [1, 4, 1024]              [1, 4, 512]               52                          9.29%                   [3]                       26,624                    True
+ ReLU (b1_relu): 1-4                    [1, 4, 512]               [1, 4, 512]               --                             --                   --                        --                        --
+ Conv1d (b2_tcn): 1-5                   [1, 4, 512]               [1, 2, 256]               26                          4.64%                   [3]                       6,656                     True
+ ReLU (b2_relu): 1-6                    [1, 2, 256]               [1, 2, 256]               --                             --                   --                        --                        --
+ Conv1d (b3_tcn): 1-7                   [1, 2, 256]               [1, 2, 128]               14                          2.50%                   [3]                       1,792                     True
+ ReLU (b3_relu): 1-8                    [1, 2, 128]               [1, 2, 128]               --                             --                   --                        --                        --
+ Conv1d (b4_tcn): 1-9                   [1, 2, 128]               [1, 1, 64]                7                           1.25%                   [3]                       448                       True
+ ReLU (b4_relu): 1-10                   [1, 1, 64]                [1, 1, 64]                --                             --                   --                        --                        --
+ Conv1d (b5_tcn): 1-11                  [1, 1, 64]                [1, 1, 32]                4                           0.71%                   [3]                       128                       True
+ ReLU (b5_relu): 1-12                   [1, 1, 32]                [1, 1, 32]                --                             --                   --                        --                        --
+ Linear (fc0): 1-13                     [1, 32]                   [1, 8]                    264                        47.14%                   --                        264                       True
+ ReLU (fc0_relu): 1-14                  [1, 8]                    [1, 8]                    --                             --                   --                        --                        --
+ Linear (fc1): 1-15                     [1, 8]                    [1, 8]                    72                         12.86%                   --                        72                        True
+ ReLU (fc1_relu): 1-16                  [1, 8]                    [1, 8]                    --                             --                   --                        --                        --
+ Linear (fc2): 1-17                     [1, 8]                    [1, 1]                    9                           1.61%                   --                        9                         True
=======================================================================================================================================================================================================================
Total params: 560
Trainable params: 560
Non-trainable params: 0
Total mult-adds (M): 0.15
…
